examples/01-quantization/mnist_tflite_models/mnist_model_quant_qat.tflite (tflite, 24864 bytes, 2 tensors)

sequential/quant_conv2d/Conv2D;sequential/quant_conv2d/LastValueQuant/FakeQuantWithMinMaxVarsPerChannel i1 [12, 3, 3, 1]
000000 94 81 96 09 36 04 6c 3e 54 69 1d ad 5d 13 ea 52
       -108 -127 -106 9 54 4 108 62 84 105 29 -83 93 19 -22 82
000010 56 7f 81 d2 35 8f 1a 6a 99 0a 42 3e 42 2e e9 7f
       86 127 -127 -46 53 -113 26 106 -103 10 66 62 66 46 -23 127
000020 1e 7c 3a b1 da 81 a7 a1 f7 31 a2 26 52 b9 50 46
       30 124 58 -79 -38 -127 -89 -95 -9 49 -94 38 82 -71 80 70
000030 fe 7f 38 e9 20 5a 13 77 a2 7f 20 db f0 23 e2 04
       -2 127 56 -23 32 90 19 119 -94 127 32 -37 -16 35 -30 4
000040 29 5d bf 81 90 39 3c 0c 3b f0 0f 78 7f 62 f4 f7
       41 93 -65 -127 -112 57 60 12 59 -16 15 120 127 98 -12 -9
000050 56 60 ee 88 06 5e 81 5e 51 12 94 d7 65 81 1e 65
       86 96 -18 -120 6 94 -127 94 81 18 -108 -41 101 -127 30 101
000060 dc 36 27 20 3f 61 38 48 fd ba 91 81
       -36 54 39 32 63 97 56 72 -3 -70 -111 -127

sequential/quant_dense/MatMul;sequential/quant_dense/LastValueQuant/FakeQuantWithMinMaxVars i1 [10, 2028] scale=0.0069460473 zero_point=0
000000 fe 02 fc f9 03 07 fe fe 08 05 fb 06 06 01 ff f9
       -0.013892095 0.013892095 -0.02778419 -0.048622333 0.020838141 0.048622333 -0.013892095 -0.013892095 0.05556838 0.034730237 -0.034730237 0.041676283 0.041676283 0.0069460473 -0.0069460473 -0.048622333
000010 03 fe 03 f8 fd f8 f8 04 fa eb f8 f4 04 f9 fd fa
       0.020838141 -0.013892095 0.020838141 -0.05556838 -0.020838141 -0.05556838 -0.05556838 0.02778419 -0.041676283 -0.14586699 -0.05556838 -0.083352566 0.02778419 -0.048622333 -0.020838141 -0.041676283
000020 fa fa f2 fc f0 f7 f3 f2 fc f6 f5 f8 f7 ee f7 09
       -0.041676283 -0.041676283 -0.097244665 -0.02778419 -0.11113676 -0.062514424 -0.090298615 -0.097244665 -0.02778419 -0.069460474 -0.07640652 -0.05556838 -0.062514424 -0.12502885 -0.062514424 0.062514424
000030 f8 f3 fa f6 01 ef e4 fa f4 ef f3 02 f7 f8 fd fa
       -0.05556838 -0.090298615 -0.041676283 -0.069460474 0.0069460473 -0.11808281 -0.19448933 -0.041676283 -0.083352566 -0.11808281 -0.090298615 0.013892095 -0.062514424 -0.05556838 -0.020838141 -0.041676283
000040 06 00 f6 f7 f4 f4 f4 02 f4 01 f1 f8 f6 ee f7 f7
       0.041676283 0.0 -0.069460474 -0.062514424 -0.083352566 -0.083352566 -0.083352566 0.013892095 -0.083352566 0.0069460473 -0.10419071 -0.05556838 -0.069460474 -0.12502885 -0.062514424 -0.062514424
000050 ef f1 f2 04 fc fd fb f9 00 f3 f0 03 f4 fc fd f8
       -0.11808281 -0.10419071 -0.097244665 0.02778419 -0.02778419 -0.020838141 -0.034730237 -0.048622333 0.0 -0.090298615 -0.11113676 0.020838141 -0.083352566 -0.02778419 -0.020838141 -0.05556838
000060 01 fa f0 fd f9 f6 e5 00 e8 fc f5 ff f3 f5 f7 f1
       0.0069460473 -0.041676283 -0.11113676 -0.020838141 -0.048622333 -0.069460474 -0.18754327 0.0 -0.16670513 -0.02778419 -0.07640652 -0.0069460473 -0.090298615 -0.07640652 -0.062514424 -0.10419071
000070 fb ef ee fd f8 f1 f1 fa fa f5 08 f0 03 f0 fa 02
       -0.034730237 -0.11808281 -0.12502885 -0.020838141 -0.05556838 -0.10419071 -0.10419071 -0.041676283 -0.041676283 -0.07640652 0.05556838 -0.11113676 0.020838141 -0.11113676 -0.041676283 0.013892095
000080 fc f0 f1 02 01 fb 02 fe f9 fd f4 02 f8 fa f3 fd
       -0.02778419 -0.11113676 -0.10419071 0.013892095 0.0069460473 -0.034730237 0.013892095 -0.013892095 -0.048622333 -0.020838141 -0.083352566 0.013892095 -0.05556838 -0.041676283 -0.090298615 -0.020838141
000090 02 fe 05 f7 f8 f8 f8 04 fb f8 fe 02 fc fe 02 f6
       0.013892095 -0.013892095 0.034730237 -0.062514424 -0.05556838 -0.05556838 -0.05556838 0.02778419 -0.034730237 -0.05556838 -0.013892095 0.013892095 -0.02778419 -0.013892095 0.013892095 -0.069460474
0000a0 f8 fb fa 05 fd fc f9 0d f1 f6 ef 00 f8 f4 f9 04
       -0.05556838 -0.034730237 -0.041676283 0.034730237 -0.020838141 -0.02778419 -0.048622333 0.090298615 -0.10419071 -0.069460474 -0.11808281 0.0 -0.05556838 -0.083352566 -0.048622333 0.02778419
0000b0 e9 f4 f5 07 f7 f2 f1 ef fe f8 f1 ff f9 f4 f8 f7
       -0.15975909 -0.083352566 -0.07640652 0.048622333 -0.062514424 -0.097244665 -0.10419071 -0.11808281 -0.013892095 -0.05556838 -0.10419071 -0.0069460473 -0.048622333 -0.083352566 -0.05556838 -0.062514424
0000c0 f9 ff ef f6 ff f7 fd fa f6 fb f5 fe fb 03 fa 01
       -0.048622333 -0.0069460473 -0.11808281 -0.069460474 -0.0069460473 -0.062514424 -0.020838141 -0.041676283 -0.069460474 -0.034730237 -0.07640652 -0.013892095 -0.034730237 0.020838141 -0.041676283 0.0069460473
0000d0 01 f7 f8 02 fd fa fb f4 fd fb 06 f6 fb 06 00 ff
       0.0069460473 -0.062514424 -0.05556838 0.013892095 -0.020838141 -0.041676283 -0.034730237 -0.083352566 -0.020838141 -0.034730237 0.041676283 -0.069460474 -0.034730237 0.041676283 0.0 -0.0069460473
0000e0 02 fd 04 f7 06 fd f8 f9 09 01 fc 06 fd 00 fe f9
       0.013892095 -0.020838141 0.02778419 -0.062514424 0.041676283 -0.020838141 -0.05556838 -0.048622333 0.062514424 0.0069460473 -0.02778419 0.041676283 -0.020838141 0.0 -0.013892095 -0.048622333
0000f0 ff 01 04 00 0a f8 fa 05 fc 04 fd f9 fb ff fd f8
       -0.0069460473 0.0069460473 0.02778419 0.0 0.069460474 -0.05556838 -0.041676283 0.034730237 -0.02778419 0.02778419 -0.020838141 -0.048622333 -0.034730237 -0.0069460473 -0.020838141 -0.05556838
