examples/01-quantization/mnist_tflite_models/mnist_model_quant_f16.tflite (tflite, 44548 bytes, 4 tensors)

sequential/conv2d/BiasAdd/ReadVariableOp/resource f2 [12]
0.02931 -0.0645 0.010765 -0.0781 0.18 -0.05225 -0.01591 0.0467
-0.0554 -0.0909 -0.017 -0.000818
00000000: 8127 21ac 8321 00ad c331 b0aa 13a4 fa29
00000010: 17ab d1ad 5aa4 b392

sequential/conv2d/Conv2D f2 [12, 3, 3, 1]
-0.619 -0.722 -0.5986 0.03084 0.2961 0.00939 0.598 0.3242
0.4763 0.299 0.0884 -0.2068 0.2612 0.05624 -0.0531 0.2367
0.2367 0.3481 -0.7783 -0.28 0.3125 -0.705 0.154 0.6543
-0.6406 0.05295 0.4028 0.171 0.1628 0.11084 -0.0496 0.3037
0.0757 0.2979 0.1392 -0.1772 -0.2257 -0.733 -0.5225 -0.54
-0.06396 0.2822 -0.578 0.1975 0.4758 -0.1907 0.2124 0.1923
-0.01026 0.3286 0.1483 -0.07355 0.07733 0.2471 0.05078 0.298
-0.2018 0.3108 0.0825 -0.05627 -0.03778 0.09155 -0.06052 0.033
0.2542 0.5933 -0.4177 -0.8027 -0.722 0.3586 0.381 0.0808
0.1544 -0.04004 0.03915 0.2883 0.2996 0.2275 -0.02795 -0.02754
0.2036 0.2737 -0.03772 -0.2808 -0.000515 0.282 -0.3154 0.2778
0.2343 0.0759 -0.4583 -0.175 0.433 -0.54 0.1277 0.4302
-0.1616 0.2228 0.1705 0.1337 0.2512 0.3967 0.2188 0.2979
-0.01866 -0.2937 -0.444 -0.5293
00000000: f4b8 c7b9 cab8 e527 bd34 cf20 c938 3035
00000010: 9f37 c934 a82d 9eb2 2e34 332b ccaa 9333
00000020: 9333 9235 3aba 7bb4 0035 a4b9 ee30 3c39
00000030: 20b9 c72a 7236 7931 3631 182f 59aa dc34
00000040: d82c c434 7430 acb1 39b3 ddb9 2eb8 52b8
00000050: 18ac 8434 a0b8 5232 9d37 1ab2 cc32 2732
00000060: 41a1 4235 bf30 b5ac f32c e833 802a c534
00000070: 75b2 f934 482d 34ab d6a8 dc2d bfab 3928
00000080: 1134 bf38 afb6 6cba c7b9 bd35 1936 2c2d
00000090: f130 20a9 0329 9d34 cb34 4833 28a7 0da7
000000a0: 8432 6134 d4a8 7eb4 3890 8334 0cb5 7234
000000b0: 7f33 dc2c 55b7 9ab1 ee36 52b8 1630 e236
000000c0: 2cb1 2133 7531 4730 0534 5936 0033 c434
000000d0: c7a4 b3b4 1bb7 3cb8

sequential/dense/BiasAdd/ReadVariableOp/resource f2 [10]
-0.005707 0.0643 -0.007713 -0.02098 -0.00398 0.03772 -0.01412 0.03096
-0.06036 -0.010284
00000000: d89d 1d2c e69f 5fa5 139c d428 3ba3 ed27
00000010: baab 44a1

sequential/dense/MatMul f2 [10, 2028]
-0.01953 0.01226 -0.03485 -0.05124 0.01521 0.04388 -0.01637 -0.01689
0.05417 0.03275 -0.03992 0.04297 0.03937 0.006733 -0.003366 -0.0519
0.01846 -0.015076 0.02661 -0.052 -0.01756 -0.05615 -0.04794 0.02728
-0.03696 -0.1293 -0.04935 -0.08026 0.02754 -0.0403 -0.0162 -0.04266
-0.0321 -0.03326 -0.0954 -0.03528 -0.11273 -0.05057 -0.0855 -0.086
-0.02934 -0.063 -0.08484 -0.05447 -0.05203 -0.11365 -0.05676 0.05774
-0.05432 -0.0878 -0.03366 -0.0501 0.00909 -0.1058 -0.1598 -0.0469
-0.0694 -0.11615 -0.0779 0.002121 -0.0593 -0.05978 -0.01498 -0.03195
0.04187 -0.00019 -0.04944 -0.067 -0.0745 -0.0818 -0.0816 0.008545
-0.08954 0.002453 -0.09595 -0.054 -0.07275 -0.12024 -0.0457 -0.06714
-0.1061 -0.10345 -0.0966 0.02528 -0.03317 -0.02507 -0.02798 -0.04614
-0.003288 -0.0918 -0.0993 0.00902 -0.08215 -0.03546 -0.02266 -0.0562
0.012566 -0.03677 -0.0733 -0.0285 -0.04257 -0.0443 -0.1669 -0.003431
-0.1371 -0.02792 -0.0538 -0.003777 -0.0703 -0.0567 -0.04272 -0.078
-0.03117 -0.09875 -0.0694 -0.003815 -0.03766 -0.08026 -0.08264 -0.0221
-0.0332 -0.0651 0.05154 -0.1015 0.0182 -0.1058 -0.02638 0.02048
-0.02148 -0.09937 -0.0993 0.02667 0.004513 -0.03687 0.0176 -0.01101
-0.05423 -0.01296 -0.0865 0.01328 -0.05255 -0.04382 -0.0837 -0.01878
0.01157 -0.013084 0.03638 -0.0617 -0.06 -0.0491 -0.04858 0.0235
-0.03119 -0.05518 -0.01045 0.014534 -0.03 -0.01611 0.008385 -0.06946
-0.05893 -0.0368 -0.04105 0.02888 -0.02621 -0.03003 -0.05243 0.0852
-0.0987 -0.056 -0.0991 0.005077 -0.05212 -0.07324 -0.04697 0.02582
-0.1493 -0.06995 -0.06287 0.0426 -0.04984 -0.0815 -0.09357 -0.09607
-0.013885 -0.03702 -0.09314 -0.006203 -0.03342 -0.06586 -0.04175 -0.06335
-0.04785 -0.00534 -0.1169 -0.05768 -0.00659 -0.0636 -0.00866 -0.0372
-0.07263 -0.02528 -0.0754 -0.01865 -0.02643 0.02893 -0.03937 0.01289
0.008995 -0.0518 -0.05 0.01161 -0.01865 -0.04105 -0.02509 -0.07465
-0.01613 -0.0272 0.0443 -0.0679 -0.03113 0.04327 0.00902 -0.00717
0.0146 -0.01054 0.03564 -0.05893 0.04257 -0.02269 -0.05884 -0.04498
0.0627 0.00972 -0.0274 0.0388 -0.01455 -0.004055 -0.014694 -0.05222
-0.00685 0.01089 0.03842 0.001416 0.0731 -0.04938 -0.03494 0.03445
-0.0192 0.02779 -0.01312 -0.05746 -0.02895 -0.002905 -0.00544 -0.04022
00000000: 00a5 4722 76a8 8faa ca23 9e29 31a4 53a4
00000010: ef2a 3128 1ca9 8029 0a29 e51e e59a a5aa
00000020: ba24 b8a3 d026 a8aa 7fa4 30ab 23aa fc26
00000030: bba8 23b0 51aa 23ad 0d27 29a9 26a4 76a9
00000040: 1ca8 42a8 1bae 84a8 37af 79aa 79ad 81ad
00000050: 83a7 08ac 6ead f9aa a9aa 46af 44ab 642b
00000060: f4aa 9fad 4fa8 6aaa a720 c5ae 1db1 01aa
00000070: 71ac 6faf fcac 5818 97ab a7ab aba3 17a8
00000080: 5c29 3a8a 54aa 4aac c5ac 3cad 39ad 6020
00000090: bbad 0619 24ae e9aa a8ac b2af d9a9 4cac
000000a0: caae 9fae 2fae 7926 3fa8 6ba6 2aa7 e8a9
000000b0: bc9a e0ad 5bae 9e20 42ad 8aa8 cda5 32ab
000000c0: 6f22 b5a8 b1ac 4ca7 73a9 aca9 57b1 079b
000000d0: 63b0 26a7 e3aa bc9b 80ac 42ab 78a9 feac
000000e0: fba7 52ae 71ac d09b d2a8 23ad 4aad a8a5
000000f0: 40a8 2bac 992a 7fae a924 c5ae c1a6 3e25
00000100: 80a5 5cae 5bae d426 9f1c b8a8 8124 a3a1
00000110: f1aa a3a2 89ad cd22 baaa 9ca9 5bad cfa4
00000120: ed21 b3a2 a828 e6ab aeab 49aa 38aa 0426
00000130: fca7 10ab 5aa1 7123 aea7 20a4 4b20 72ac
00000140: 8bab b6a8 41a9 6527 b6a6 b0a7 b6aa 742d
00000150: 51ae 2bab 58ae 331d acaa b0ac 03aa 9c26
00000160: c7b0 7aac 06ac 7429 61aa 37ad fdad 26ae
00000170: 1ca3 bda8 f6ad 5a9e 47a8 37ac 58a9 0eac
00000180: 20aa 789d 7baf 62ab c09e 12ac 6fa0 c3a8
00000190: a6ac 79a6 d3ac c6a4 c4a6 6827 0aa9 9a22
000001a0: 9b20 a1aa 66aa f221 c6a4 41a9 6ca6 c7ac
000001b0: 21a4 f7a6 ac29 58ac f8a7 8a29 9e20 589f
000001c0: 7a23 65a1 9028 8bab 7329 cfa5 88ab c2a9
000001d0: 032c fa20 04a7 f728 73a3 279c 86a3 afaa
000001e0: 049f 9321 eb28 cd15 ae2c 52aa 79a8 6928
000001f0: eaa4 1d27 b8a2 5bab 69a7 f399 929d 26a9
