examples/02-quantization/mnist_tflite_models/mnist_model_quant_dynamic.tflite (tflite, 23976 bytes, 4 tensors)

sequential/conv2d/BiasAdd/ReadVariableOp/resource f4 [12]
00000000: 501f f03c 1729 84bd 1257 303c a40e a0bd
00000010: 0d63 383e 55fb 55bd f46b 82bc 0e4b 3f3d
00000020: eed6 62bd f515 babd f449 8bbc 846e 56ba
0.029311806 -0.0645315 0.010762947 -0.078152925 0.18006535 -0.052241642 -0.015920617 0.046702437
-0.055380754 -0.09086219 -0.017003037 -0.000817992

sequential/conv2d/Conv2D f4 [12, 3, 3, 1]
00000000: 2170 1ebf a8d5 38bf 8232 19bf 78a0 fc3c
00000010: dda5 973e ebe1 193c f111 193f 66f1 a53e
00000020: fbd9 f33e d82e 993e 5000 b53d b2ca 53be
00000030: 72cd 853e d959 663d f57d 59bd 5e6f 723e
00000040: a752 723e 7935 b23e c435 47bf dd61 8fbe
00000050: a908 a03e 4189 34bf 91bd 1d3e 1e77 273f
00000060: dd08 24bf c1e4 583d 3c47 ce3e 751d 2f3e
00000070: 71b4 263e ae01 e33d 2a29 4bbd d384 9b3e
00000080: 09f1 9a3d 4e74 983e 468a 0e3e f976 35be
00000090: 3d20 67be 3da0 3bbf 6fcd 05bf fe32 0abf
000000a0: 3af6 82bd ed70 903e ed03 14bf a531 4a3e
000000b0: 5498 f33e f849 43be b37b 593e bdea 443e
000000c0: fb18 28bc e841 a83e 59d7 173e 1c96 96bd
000000d0: 8b5e 9e3d 5402 7d3e 050a 503d 8ba1 983e
000000e0: 6ba2 4ebe 8414 9f3e c5f0 a83d 397e 66bd
000000f0: f2ce 1abd 0180 bb3d f8e7 77bd 0b1a 073d
00000100: fa1c 823e 7de2 173f 6adc d5be 3d80 4dbf
00000110: c3ed 38bf 5ca1 b73e b12d c33e ae7d a53d
00000120: f418 1e3e 2707 24bd bd53 203d 0d9d 933e
00000130: e86a 993e 4601 693e c301 e5bc b5a8 e1bc
00000140: 4074 503e ef19 8c3e 7b8c 1abd 32bf 8fbe
00000150: 8902 07ba 5c60 903e 177c a1be e94f 8e3e
00000160: 1ae1 6f3e 038d 9b3d 129d eabe 2738 33be
00000170: 82bb dd3e 0d47 0abf 1ac5 023e 7230 dc3e
00000180: 9687 25be 9414 643e 98a0 2e3e 77e7 083e
00000190: 5c92 803e da23 cb3e 4ff6 5f3e 757c 983e
000001a0: ade3 98bc d966 96be 6950 e3be 4e87 07bf
-0.61889845 -0.72201014 -0.59842694 0.030838236 0.2961873 0.009392242 0.59793 0.32410735
0.47627243 0.2991855 0.0883795 -0.20682791 0.26133305 0.05623803 -0.053098638 0.23675296
0.23664342 0.3480642 -0.77816415 -0.2800435 0.31256607 -0.7052193 0.15404345 0.65416133
-0.64076024 0.05295253 0.40288723 0.1710108 0.1627977 0.11084305 -0.049599804 0.30374774
0.07565505 0.29776233 0.13919935 -0.17721166 -0.22570892 -0.7329138 -0.5226659 -0.5398406
-0.0639462 0.28211156 -0.5781849 0.197455 0.47577155 -0.19071186 0.21238594 0.1923017
-0.010259862 0.32862782 0.14828242 -0.0735285 0.077328764 0.2470792 0.050790805 0.29810748
-0.20179145 0.3107034 0.08249048 -0.05627272 -0.037795015 0.09155274 -0.060523957 0.03298382
0.25412732 0.5932997 -0.41769725 -0.802738 -0.72237796 0.35865295 0.38120797 0.08080612
0.15439206 -0.040045884 0.03914236 0.28830758 0.29964375 0.22754392 -0.027954942 -0.027546266
0.20356846 0.27363536 -0.03773163 -0.28075558 -0.0005150219 0.28198516 -0.31539986 0.27795342
0.23425713 0.07595255 -0.4582296 -0.17501889 0.4330712 -0.54014665 0.12770501 0.4300571
-0.16165003 0.22273475 0.17053449 0.13369547 0.25111663 0.3967579 0.21871303 0.29782453
-0.018663252 -0.29375342 -0.44397286 -0.52940834

sequential/dense/BiasAdd/ReadVariableOp/resource f4 [10]
00000000: dc0c bbbb 729c 833d 5ac1 fcbb 16e6 abbc
00000010: a05f 82bb eb79 1a3d c06f 67bc ccae fd3c
00000020: e832 77bd 9577 28bc
-0.00570832 0.06426324 -0.007713479 -0.020983737 -0.0039786845 0.037713926 -0.014125764 0.030967139
-0.060351282 -0.010282417

sequential/dense/MatMul i1 [10, 2028] scale=0.0065559973 zero_point=0
00000000: fd02 fbf8 0207 fefd 0805 fa07 0601 fff8
00000010: 03fe 04f8 fdf7 f904 faec f8f4 04fa fef9
00000020: fbfb f1fb eff8 f3f3 fcf6 f3f8 f8ef f709
00000030: f8f3 fbf8 01f0 e8f9 f5ee f400 f7f7 fefb
00000040: 0600 f8f6 f5f4 f401 f200 f1f8 f5ee f9f6
00000050: f0f0 f104 fbfc fcf9 fff2 f101 f3fb fdf7
00000060: 02fa f5fc faf9 e7ff ebfc f8ff f5f7 f9f4
00000070: fbf1 f5ff faf4 f3fd fbf6 08f1 03f0 fc03
00000080: fdf1 f104 01fa 03fe f8fe f302 f8f9 f3fd
00000090: 02fe 06f7 f7f9 f904 fbf8 fe02 fbfe 01f5
000000a0: f7fa fa04 fcfb f80d f1f7 f101 f8f5 f904
000000b0: e9f5 f607 f8f4 f2f1 fefa f2ff fbf6 faf6
000000c0: f9ff eef7 fff6 fffa f5fc f5fd fc04 fa02
000000d0: 01f8 f802 fdfa fcf5 fefc 07f6 fb07 01ff
000000e0: 02fe 05f7 06fd f7f9 0a01 fc06 feff fef8
000000f0: ff02 0600 0bf8 fb05 fd04 fef7 fc00 fffa
-0.019667992 0.013111995 -0.032779988 -0.05244798 0.013111995 0.04589198 -0.013111995 -0.019667992
0.05244798 0.032779988 -0.039335985 0.04589198 0.039335985 0.0065559973 -0.0065559973 -0.05244798
0.019667992 -0.013111995 0.02622399 -0.05244798 -0.019667992 -0.059003975 -0.04589198 0.02622399
-0.039335985 -0.13111995 -0.05244798 -0.07867197 0.02622399 -0.039335985 -0.013111995 -0.04589198
-0.032779988 -0.032779988 -0.09833996 -0.032779988 -0.11145195 -0.05244798 -0.08522797 -0.08522797
-0.02622399 -0.065559976 -0.08522797 -0.05244798 -0.05244798 -0.11145195 -0.059003975 0.059003975
-0.05244798 -0.08522797 -0.032779988 -0.05244798 0.0065559973 -0.10489596 -0.15734394 -0.04589198
-0.07211597 -0.11800795 -0.07867197 0.0 -0.059003975 -0.059003975 -0.013111995 -0.032779988
0.039335985 0.0 -0.05244798 -0.065559976 -0.07211597 -0.07867197 -0.07867197 0.0065559973
-0.09178396 0.0 -0.09833996 -0.05244798 -0.07211597 -0.11800795 -0.04589198 -0.065559976
-0.10489596 -0.10489596 -0.09833996 0.02622399 -0.032779988 -0.02622399 -0.02622399 -0.04589198
-0.0065559973 -0.09178396 -0.09833996 0.0065559973 -0.08522797 -0.032779988 -0.019667992 -0.059003975
0.013111995 -0.039335985 -0.07211597 -0.02622399 -0.039335985 -0.04589198 -0.16389993 -0.0065559973
-0.13767594 -0.02622399 -0.05244798 -0.0065559973 -0.07211597 -0.059003975 -0.04589198 -0.07867197
-0.032779988 -0.09833996 -0.07211597 -0.0065559973 -0.039335985 -0.07867197 -0.08522797 -0.019667992
-0.032779988 -0.065559976 0.05244798 -0.09833996 0.019667992 -0.10489596 -0.02622399 0.019667992
-0.019667992 -0.09833996 -0.09833996 0.02622399 0.0065559973 -0.039335985 0.019667992 -0.013111995
-0.05244798 -0.013111995 -0.08522797 0.013111995 -0.05244798 -0.04589198 -0.08522797 -0.019667992
0.013111995 -0.013111995 0.039335985 -0.059003975 -0.059003975 -0.04589198 -0.04589198 0.02622399
-0.032779988 -0.05244798 -0.013111995 0.013111995 -0.032779988 -0.013111995 0.0065559973 -0.07211597
-0.059003975 -0.039335985 -0.039335985 0.02622399 -0.02622399 -0.032779988 -0.05244798 0.08522797
-0.09833996 -0.059003975 -0.09833996 0.0065559973 -0.05244798 -0.07211597 -0.04589198 0.02622399
-0.15078793 -0.07211597 -0.065559976 0.04589198 -0.05244798 -0.07867197 -0.09178396 -0.09833996
-0.013111995 -0.039335985 -0.09178396 -0.0065559973 -0.032779988 -0.065559976 -0.039335985 -0.065559976
-0.04589198 -0.0065559973 -0.11800795 -0.059003975 -0.0065559973 -0.065559976 -0.0065559973 -0.039335985
-0.07211597 -0.02622399 -0.07211597 -0.019667992 -0.02622399 0.02622399 -0.039335985 0.013111995
0.0065559973 -0.05244798 -0.05244798 0.013111995 -0.019667992 -0.039335985 -0.02622399 -0.07211597
-0.013111995 -0.02622399 0.04589198 -0.065559976 -0.032779988 0.04589198 0.0065559973 -0.0065559973
0.013111995 -0.013111995 0.032779988 -0.059003975 0.039335985 -0.019667992 -0.059003975 -0.04589198
0.065559976 0.0065559973 -0.02622399 0.039335985 -0.013111995 -0.0065559973 -0.013111995 -0.05244798
-0.0065559973 0.013111995 0.039335985 0.0 0.07211597 -0.05244798 -0.032779988 0.032779988
-0.019667992 0.02622399 -0.013111995 -0.059003975 -0.02622399 0.0 -0.0065559973 -0.039335985
