examples/02-quantization/mnist_tflite_models/mnist_model_quant_int8.tflite (tflite, 24504 bytes, 2 tensors)

sequential/dense/MatMul i1 [10, 2028] scale=0.0065559973 zero_point=0
-0.019667992 0.013111995 -0.032779988 -0.05244798 0.013111995 0.04589198 -0.013111995 -0.019667992
0.05244798 0.032779988 -0.039335985 0.04589198 0.039335985 0.0065559973 -0.0065559973 -0.05244798
0.019667992 -0.013111995 0.02622399 -0.05244798 -0.019667992 -0.059003975 -0.04589198 0.02622399
-0.039335985 -0.13111995 -0.05244798 -0.07867197 0.02622399 -0.039335985 -0.013111995 -0.04589198
-0.032779988 -0.032779988 -0.09833996 -0.032779988 -0.11145195 -0.05244798 -0.08522797 -0.08522797
-0.02622399 -0.065559976 -0.08522797 -0.05244798 -0.05244798 -0.11145195 -0.059003975 0.059003975
-0.05244798 -0.08522797 -0.032779988 -0.05244798 0.0065559973 -0.10489596 -0.15734394 -0.04589198
-0.07211597 -0.11800795 -0.07867197 0.0 -0.059003975 -0.059003975 -0.013111995 -0.032779988
0.039335985 0.0 -0.05244798 -0.065559976 -0.07211597 -0.07867197 -0.07867197 0.0065559973
-0.09178396 0.0 -0.09833996 -0.05244798 -0.07211597 -0.11800795 -0.04589198 -0.065559976
-0.10489596 -0.10489596 -0.09833996 0.02622399 -0.032779988 -0.02622399 -0.02622399 -0.04589198
-0.0065559973 -0.09178396 -0.09833996 0.0065559973 -0.08522797 -0.032779988 -0.019667992 -0.059003975
0.013111995 -0.039335985 -0.07211597 -0.02622399 -0.039335985 -0.04589198 -0.16389993 -0.0065559973
-0.13767594 -0.02622399 -0.05244798 -0.0065559973 -0.07211597 -0.059003975 -0.04589198 -0.07867197
-0.032779988 -0.09833996 -0.07211597 -0.0065559973 -0.039335985 -0.07867197 -0.08522797 -0.019667992
-0.032779988 -0.065559976 0.05244798 -0.09833996 0.019667992 -0.10489596 -0.02622399 0.019667992
-0.019667992 -0.09833996 -0.09833996 0.02622399 0.0065559973 -0.039335985 0.019667992 -0.013111995
-0.05244798 -0.013111995 -0.08522797 0.013111995 -0.05244798 -0.04589198 -0.08522797 -0.019667992
0.013111995 -0.013111995 0.039335985 -0.059003975 -0.059003975 -0.04589198 -0.04589198 0.02622399
-0.032779988 -0.05244798 -0.013111995 0.013111995 -0.032779988 -0.013111995 0.0065559973 -0.07211597
-0.059003975 -0.039335985 -0.039335985 0.02622399 -0.02622399 -0.032779988 -0.05244798 0.08522797
-0.09833996 -0.059003975 -0.09833996 0.0065559973 -0.05244798 -0.07211597 -0.04589198 0.02622399
-0.15078793 -0.07211597 -0.065559976 0.04589198 -0.05244798 -0.07867197 -0.09178396 -0.09833996
-0.013111995 -0.039335985 -0.09178396 -0.0065559973 -0.032779988 -0.065559976 -0.039335985 -0.065559976
-0.04589198 -0.0065559973 -0.11800795 -0.059003975 -0.0065559973 -0.065559976 -0.0065559973 -0.039335985
-0.07211597 -0.02622399 -0.07211597 -0.019667992 -0.02622399 0.02622399 -0.039335985 0.013111995
0.0065559973 -0.05244798 -0.05244798 0.013111995 -0.019667992 -0.039335985 -0.02622399 -0.07211597
-0.013111995 -0.02622399 0.04589198 -0.065559976 -0.032779988 0.04589198 0.0065559973 -0.0065559973
0.013111995 -0.013111995 0.032779988 -0.059003975 0.039335985 -0.019667992 -0.059003975 -0.04589198
0.065559976 0.0065559973 -0.02622399 0.039335985 -0.013111995 -0.0065559973 -0.013111995 -0.05244798
-0.0065559973 0.013111995 0.039335985 0.0 0.07211597 -0.05244798 -0.032779988 0.032779988
-0.019667992 0.02622399 -0.013111995 -0.059003975 -0.02622399 0.0 -0.0065559973 -0.039335985
00000000: fd02 fbf8 0207 fefd 0805 fa07 0601 fff8
00000010: 03fe 04f8 fdf7 f904 faec f8f4 04fa fef9
00000020: fbfb f1fb eff8 f3f3 fcf6 f3f8 f8ef f709
00000030: f8f3 fbf8 01f0 e8f9 f5ee f400 f7f7 fefb
00000040: 0600 f8f6 f5f4 f401 f200 f1f8 f5ee f9f6
00000050: f0f0 f104 fbfc fcf9 fff2 f101 f3fb fdf7
00000060: 02fa f5fc faf9 e7ff ebfc f8ff f5f7 f9f4
00000070: fbf1 f5ff faf4 f3fd fbf6 08f1 03f0 fc03
00000080: fdf1 f104 01fa 03fe f8fe f302 f8f9 f3fd
00000090: 02fe 06f7 f7f9 f904 fbf8 fe02 fbfe 01f5
000000a0: f7fa fa04 fcfb f80d f1f7 f101 f8f5 f904
000000b0: e9f5 f607 f8f4 f2f1 fefa f2ff fbf6 faf6
000000c0: f9ff eef7 fff6 fffa f5fc f5fd fc04 fa02
000000d0: 01f8 f802 fdfa fcf5 fefc 07f6 fb07 01ff
000000e0: 02fe 05f7 06fd f7f9 0a01 fc06 feff fef8
000000f0: ff02 0600 0bf8 fb05 fd04 fef7 fc00 fffa

sequential/conv2d/Conv2D i1 [12, 3, 3, 1]
-109 -127 -105 5 52 2 105 57
84 109 32 -75 95 21 -19 86
86 127 -127 -46 51 -115 25 107
-105 9 66 72 68 46 -21 127
32 124 58 -74 -39 -127 -91 -94
-11 49 -100 34 82 -74 82 74
-4 127 57 -28 30 95 21 122
-82 127 34 -23 -15 37 -25 5
40 94 -66 -127 -114 57 60 13
65 -17 17 122 127 96 -12 -12
86 110 -15 -113 0 114 -127 112
94 31 -108 -41 102 -127 30 101
-38 52 40 32 60 95 52 71
-4 -70 -107 -127
00000000: 9381 9705 3402 6939 546d 20b5 5f15 ed56
00000010: 567f 81d2 338d 196b 9709 4248 442e eb7f
00000020: 207c 3ab6 d981 a5a2 f531 9c22 52b6 524a
00000030: fc7f 39e4 1e5f 157a ae7f 22e9 f125 e705
00000040: 285e be81 8e39 3c0d 41ef 117a 7f60 f4f4
00000050: 566e f18f 0072 8170 5e1f 94d7 6681 1e65
00000060: da34 2820 3c5f 3447 fcba 9581
