examples/02-quantization/mnist_tflite_models/mnist_model.tflite (tflite, 84728 bytes, 4 tensors)

sequential/conv2d/BiasAdd/ReadVariableOp/resource f4 [12]
00000000: 501f f03c 1729 84bd 1257 303c a40e a0bd
00000010: 0d63 383e 55fb 55bd f46b 82bc 0e4b 3f3d
00000020: eed6 62bd f515 babd f449 8bbc 846e 56ba
0.029311806 -0.0645315 0.010762947 -0.078152925 0.18006535 -0.052241642 -0.015920617 0.046702437
-0.055380754 -0.09086219 -0.017003037 -0.000817992

sequential/conv2d/Conv2D f4 [12, 3, 3, 1]
00000000: 2170 1ebf a8d5 38bf 8232 19bf 78a0 fc3c
00000010: dda5 973e ebe1 193c f111 193f 66f1 a53e
00000020: fbd9 f33e d82e 993e 5000 b53d b2ca 53be
00000030: 72cd 853e d959 663d f57d 59bd 5e6f 723e
00000040: a752 723e 7935 b23e c435 47bf dd61 8fbe
00000050: a908 a03e 4189 34bf 91bd 1d3e 1e77 273f
00000060: dd08 24bf c1e4 583d 3c47 ce3e 751d 2f3e
00000070: 71b4 263e ae01 e33d 2a29 4bbd d384 9b3e
00000080: 09f1 9a3d 4e74 983e 468a 0e3e f976 35be
00000090: 3d20 67be 3da0 3bbf 6fcd 05bf fe32 0abf
000000a0: 3af6 82bd ed70 903e ed03 14bf a531 4a3e
000000b0: 5498 f33e f849 43be b37b 593e bdea 443e
000000c0: fb18 28bc e841 a83e 59d7 173e 1c96 96bd
000000d0: 8b5e 9e3d 5402 7d3e 050a 503d 8ba1 983e
000000e0: 6ba2 4ebe 8414 9f3e c5f0 a83d 397e 66bd
000000f0: f2ce 1abd 0180 bb3d f8e7 77bd 0b1a 073d
00000100: fa1c 823e 7de2 173f 6adc d5be 3d80 4dbf
00000110: c3ed 38bf 5ca1 b73e b12d c33e ae7d a53d
00000120: f418 1e3e 2707 24bd bd53 203d 0d9d 933e
00000130: e86a 993e 4601 693e c301 e5bc b5a8 e1bc
00000140: 4074 503e ef19 8c3e 7b8c 1abd 32bf 8fbe
00000150: 8902 07ba 5c60 903e 177c a1be e94f 8e3e
00000160: 1ae1 6f3e 038d 9b3d 129d eabe 2738 33be
00000170: 82bb dd3e 0d47 0abf 1ac5 023e 7230 dc3e
00000180: 9687 25be 9414 643e 98a0 2e3e 77e7 083e
00000190: 5c92 803e da23 cb3e 4ff6 5f3e 757c 983e
000001a0: ade3 98bc d966 96be 6950 e3be 4e87 07bf
-0.61889845 -0.72201014 -0.59842694 0.030838236 0.2961873 0.009392242 0.59793 0.32410735
0.47627243 0.2991855 0.0883795 -0.20682791 0.26133305 0.05623803 -0.053098638 0.23675296
0.23664342 0.3480642 -0.77816415 -0.2800435 0.31256607 -0.7052193 0.15404345 0.65416133
-0.64076024 0.05295253 0.40288723 0.1710108 0.1627977 0.11084305 -0.049599804 0.30374774
0.07565505 0.29776233 0.13919935 -0.17721166 -0.22570892 -0.7329138 -0.5226659 -0.5398406
-0.0639462 0.28211156 -0.5781849 0.197455 0.47577155 -0.19071186 0.21238594 0.1923017
-0.010259862 0.32862782 0.14828242 -0.0735285 0.077328764 0.2470792 0.050790805 0.29810748
-0.20179145 0.3107034 0.08249048 -0.05627272 -0.037795015 0.09155274 -0.060523957 0.03298382
0.25412732 0.5932997 -0.41769725 -0.802738 -0.72237796 0.35865295 0.38120797 0.08080612
0.15439206 -0.040045884 0.03914236 0.28830758 0.29964375 0.22754392 -0.027954942 -0.027546266
0.20356846 0.27363536 -0.03773163 -0.28075558 -0.0005150219 0.28198516 -0.31539986 0.27795342
0.23425713 0.07595255 -0.4582296 -0.17501889 0.4330712 -0.54014665 0.12770501 0.4300571
-0.16165003 0.22273475 0.17053449 0.13369547 0.25111663 0.3967579 0.21871303 0.29782453
-0.018663252 -0.29375342 -0.44397286 -0.52940834

sequential/dense/BiasAdd/ReadVariableOp/resource f4 [10]
00000000: dc0c bbbb 729c 833d 5ac1 fcbb 16e6 abbc
00000010: a05f 82bb eb79 1a3d c06f 67bc ccae fd3c
00000020: e832 77bd 9577 28bc
-0.00570832 0.06426324 -0.007713479 -0.020983737 -0.0039786845 0.037713926 -0.014125764 0.030967139
-0.060351282 -0.010282417

sequential/dense/MatMul f4 [10, 2028]
00000000: 2cf7 9fbc 4bd8 483c 0bb5 0ebd 88e9 51bd
00000010: 504b 793c cfbb 333d bb2a 86bc eb68 8abc
00000020: 50e0 5d3d e228 063d 8f81 23bd 6dfe 2f3d
00000030: 4c35 213d 10a2 dc3b 2199 5cbb 739d 54bd
00000040: 7f41 973c fc05 77bc 3701 da3c 0af3 54bd
00000050: 00da 8fbc 8efe 65bd 4859 44bd 1c73 df3c
00000060: 0167 17bd 7062 04be 231d 4abd ba52 a4bd
00000070: 2495 e13c 041b 25bd 0abb 84bc 4acb 2ebd
00000080: 2675 03bd aa36 08bd 5668 c3bd a982 10bd
00000090: cfd3 e6bd 3f13 4fbd 1d14 afbd 4818 b0bd
000000a0: ab56 f0bc cbfd 80bd aeb9 adbd 6813 5fbd
000000b0: b126 55bd 08b4 e8bd 3686 68bd cb76 6c3d
000000c0: 4576 5ebd 81d3 b3bd 12d6 09bd cd35 4dbd
000000d0: 9fe1 143c ff90 d8bd 869c 23be 8513 40bd
000000e0: ae1b 8ebd 67e7 edbd 407d 9fbd 54f3 0a3b
000000f0: 25e0 72bd a4e1 74bd 2a6a 75bc dbd6 02bd
00000100: 717f 2b3d ea4f 47b9 e387 4abd ca33 89bd
00000110: 3ba0 98bd 8681 a7bd 7c18 a7bd 2ef5 0b3c
00000120: f350 b7bd 48b1 203b be76 c4bd f610 5dbd
00000130: c4f5 94bd 843c f6bd d416 3bbd 9981 89bd
00000140: 9133 d9bd f5eb d3bd 88dc c5bd 6a18 cf3c
00000150: 05d7 07bd fb6e cdbc 8a37 e5bc 6b06 3dbd
00000160: e578 57bb d701 bcbd 8060 cbbd f9c9 133c
00000170: 6245 a8bd 7e40 11bd 2ca1 b9bc a946 66bd
00000180: 0de4 4d3c 84a4 16bd a82c 96bd ab7b e9bc
00000190: 525a 2ebd 407a 35bd 7ae6 2abe 62ec 60bb
000001a0: 1958 0cbe d4b3 e4bc fb6c 5cbd 9d7f 77bb
000001b0: bff2 8fbd 5044 68bd 8b03 2fbd b1cd 9fbd
000001c0: e053 ffbc 6732 cabd 132f 8ebd 8a0b 7abb
000001d0: ef32 1abd fa6f a4bd c742 a9bd 3cf8 b4bc
000001e0: ae0b 08bd d551 85bd 3a1a 533d 7ee8 cfbd
000001f0: 1120 953c 15a9 d8bd 3b17 d8bc 32c7 a73c
00000200: 1af0 afbc 6373 cbbd 5364 cbbd a880 da3c
00000210: 88e0 933b 1a00 17bd 9613 903c 8d61 34bc
00000220: b629 5ebd 4d59 54bc 5f24 b1bd 3796 593c
00000230: 9033 57bd b581 33bd 7f6c abbd f8e6 99bc
00000240: e9ad 3d3c 8352 56bc 740b 153d afba 7cbd
00000250: e1c4 75bd be1c 49bd 2007 47bd 3c71 c03c
00000260: 8f8d ffbc ae02 62bd b13b 2bbc 8e19 6e3c
00000270: eacd f5bc 65f1 83bc 4d67 093c ed3a 8ebd
00000280: 565a 71bd c1c3 16bd 162d 28bd 3a9f ec3c
00000290: 82c2 d6bc 42fb f5bc 19cd 56bd 9871 ae3d
000002a0: 702f cabd 6952 65bd 38f9 cabd 675b a63b
000002b0: e087 55bd bff5 95bd 0e5f 40bd 5383 d33c
000002c0: 1cdd 18be 0847 8fbd c4b2 80bd b48c 2e3d
000002d0: 4b23 4cbd 35e0 a6bd 6999 bfbd a4b7 c4bd
000002e0: a985 63bc 4da7 17bd f1b7 bebd a046 cbbb
000002f0: 32e0 08bd 7cd8 86bd e802 2bbd 05b3 81bd
00000300: c8fb 43bd fbfa aebb b752 efbd f436 6cbd
00000310: 55f0 d7bb 5630 82bd 8fd5 0dbc 2f65 18bd
00000320: c5b6 94bd c722 cfbc 155e 9abd d1cd 98bc
00000330: c789 d8bc bffc ec3c 2d41 21bd 1134 533c
00000340: 5558 133c 561a 54bd c2bb 4cbd 3c4f 3e3c
00000350: d2b5 98bc 2a10 28bd 4d70 cdbc 9ce6 98bd
00000360: 672b 84bc 2fd9 debc f77e 353d b4fd 8abd
00000370: 1bf9 febc 8737 313d 89c3 133c 84ff eabb
00000380: 054d 6f3c 12a3 2cbc 210e 123d 5962 71bd
00000390: 3265 2e3d 79d7 b9bc 41f9 70bd 9130 38bd
000003a0: 2961 803d 5435 1f3c 267a e0bc 4ee5 1e3d
000003b0: 5c50 6ebc 02de 84bb d3c2 70bc 1fe0 55bd
000003c0: 918e e0bb 7456 323c 0464 1d3d 0f9f b93a
000003d0: 2eb7 953d 0d4e 4abd fb10 0fbd 0e26 0d3d
000003e0: 2434 9dbc 6fa8 e33c 49f0 56bc 486b 6bbd
000003f0: cf24 edbc 3a64 3ebb 0237 b2bb 2ccd 24bd
-0.01952704 0.0122585995 -0.034840625 -0.051248103 0.01521571 0.04388028 -0.016377797 -0.016895732
0.054169 0.032753833 -0.03991848 0.04296725 0.03935747 0.0067331865 -0.0033660608 -0.051907968
0.018463848 -0.01507711 0.026611907 -0.051989593 -0.017560005 -0.056150965 -0.047936708 0.027276568
-0.036963467 -0.12928176 -0.049344193 -0.08023591 0.027536936 -0.040308967 -0.016202468 -0.04267434
-0.032094143 -0.033255257 -0.09541385 -0.035280857 -0.11270868 -0.050555464 -0.08548758 -0.08598381
-0.029338202 -0.06298407 -0.08482681 -0.054461867 -0.052038852 -0.11362463 -0.05676862 0.057730477
-0.05431201 -0.087805755 -0.03365142 -0.050100137 0.009086995 -0.10574531 -0.15977678 -0.046893615
-0.06938873 -0.11616402 -0.077875614 0.0021202164 -0.059295792 -0.0597855 -0.014978925 -0.031943183
0.041869584 -0.00019007889 -0.049445998 -0.06699331 -0.074524365 -0.081790015 -0.08158967 0.008542342
-0.08950987 0.002451973 -0.09592961 -0.053971253 -0.072734386 -0.12023261 -0.045676067 -0.06714172
-0.10605539 -0.103477396 -0.096612036 0.025280196 -0.033164043 -0.025077334 -0.027980585 -0.0461487
-0.0032878455 -0.091800384 -0.09930515 0.009020322 -0.08216359 -0.035461895 -0.02265986 -0.05621973
0.012566579 -0.036777988 -0.07332736 -0.028501352 -0.042566605 -0.04430604 -0.16689482 -0.0034320583
-0.13705482 -0.02791778 -0.05381487 -0.0037765272 -0.07028722 -0.056705773 -0.04272799 -0.078029044
-0.031167924 -0.09872895 -0.069425724 -0.003815385 -0.03764623 -0.0802917 -0.0826469 -0.022091024
-0.033214264 -0.06509749 0.051538683 -0.10151766 0.018203767 -0.10579125 -0.026378265 0.020480726
-0.021476794 -0.09934118 -0.09931245 0.026672676 0.00451285 -0.03686533 0.017587464 -0.011009586
-0.054238997 -0.012960744 -0.08649515 0.013280443 -0.05253941 -0.04382487 -0.08370303 -0.018786892
0.011577108 -0.013081196 0.036387876 -0.061701473 -0.06000221 -0.049099676 -0.04859078 0.023491494
-0.03119543 -0.055178337 -0.010451243 0.01453246 -0.030005414 -0.016106317 0.008386445 -0.06944833
-0.05892404 -0.03680778 -0.041058622 0.028884519 -0.026215795 -0.030027036 -0.05244169 0.0851776
-0.09872329 -0.055986796 -0.09910816 0.005076814 -0.052131534 -0.07322263 -0.04696565 0.025819456
-0.14928097 -0.0699597 -0.06284097 0.042614654 -0.049838345 -0.08148233 -0.093554325 -0.09605339
-0.0138868475 -0.037024785 -0.09312428 -0.0062034875 -0.033416934 -0.0658426 -0.04175082 -0.063329734
-0.04784754 -0.005339978 -0.116856985 -0.057669595 -0.006589929 -0.063568756 -0.008656873 -0.03720587
-0.07261423 -0.025285138 -0.07537476 -0.018652828 -0.026432885 0.028929112 -0.039368797 0.012890832
0.008993228 -0.05178293 -0.049983747 0.011615571 -0.018641386 -0.04103104 -0.025077963 -0.0746586
-0.016133977 -0.02720317 0.044310536 -0.06786671 -0.031124642 0.043265846 0.009018787 -0.007171573
0.014605765 -0.010536926 0.035658006 -0.058931682 0.042576976 -0.022685753 -0.058831457 -0.04496819
0.06268532 0.009717304 -0.027401995 0.0387929 -0.014545526 -0.0040547857 -0.014694887 -0.05221569
-0.0068529327 0.01088487 0.03842546 0.0014161783 0.073103294 -0.04939084 -0.034928303 0.03446012
-0.019189902 0.027790276 -0.013118812 -0.05747536 -0.028948216 -0.002905144 -0.0054386863 -0.04023473
